…
    "title": "Fully-Connected layers decomposition",
    "section": "2. Train the model",
    "text": "2. Train the model\n\nlearn = Learner(dls, vgg16_bn(num_classes=2), metrics=accuracy)\nlearn.fit_one_cycle(3)\n\n\n\n\nepoch\ntrain_loss\nvalid_loss\naccuracy\ntime\n\n\n\n\n0\n0.886644\n0.652151\n0.685386\n00:22\n\n\n1\n0.692583\n0.627857\n0.685386\n00:21\n\n\n2\n0.646516\n0.622866\n0.685386\n00:22\n\n\n\n\n\n\nDecompose !\n\n\nfc = FC_Decomposer()\nnew_model = fc.decompose(learn.model)\n\nThe fc layers have been factorized and replace by smaller ones.\n\nnew_model\n\nVGG(\n  (features): Sequential(\n    (0): Conv2d(3, 64, kernel_size=(3, 3), stride=(1, 1), padding=(1, 1))\n    (1): BatchNorm2d(64, eps=1e-05, momentum=0.1, affine=True, track_running_stats=True)\n    (2): ReLU(inplace=True)\n    (3): Conv2d(64, 64, kernel_size=(3, 3), stride=(1, 1), padding=(1, 1))\n    (4): BatchNorm2d(64, eps=1e-05, momentum=0.1, affine=True, track_running_stats=True)\n    (5): ReLU(inplace=True)\n    (6): MaxPool2d(kernel_size=2, stride=2, padding=0, dilation=1, ceil_mode=False)\n    (7): Conv2d(64, 128, kernel_size=(3, 3), stride=(1, 1), padding=(1, 1))\n    (8): BatchNorm2d(128, eps=1e-05, momentum=0.1, affine=True, track_running_stats=True)\n    (9): ReLU(inplace=True)\n    (10): Conv2d(128, 128, kernel_size=(3, 3), stride=(1, 1), padding=(1, 1))\n    (11): BatchNorm2d(128, eps=1e-05, momentum=0.1, affine=True, track_running_stats=True)\n    (12): ReLU(inplace=True)\n    (13): MaxPool2d(kernel_size=2, stride=2, padding=0, dilation=1, ceil_mode=False)\n    (14): Conv2d(128, 256, kernel_size=(3, 3), stride=(1, 1), padding=(1, 1))\n    (15): BatchNorm2d(256, eps=1e-05, momentum=0.1, affine=True, track_running_stats=True)\n    (16): ReLU(inplace=True)\n    (17): Conv2d(256, 256, kernel_size=(3, 3), stride=(1, 1), padding=(1, 1))\n    (18): BatchNorm2d(256, eps=1e-05, momentum=0.1, affine=True, track_running_stats=True)\n    (19): ReLU(inplace=True)\n    (20): Conv2d(256, 256, kernel_size=(3, 3), stride=(1, 1), padding=(1, 1))\n    (21): BatchNorm2d(256, eps=1e-05, momentum=0.1, affine=True, track_running_stats=True)\n    (22): ReLU(inplace=True)\n    (23): MaxPool2d(kernel_size=2, stride=2, padding=0, dilation=1, ceil_mode=False)\n    (24): Conv2d(256, 512, kernel_size=(3, 3), stride=(1, 1), padding=(1, 1))\n    (25): BatchNorm2d(512, eps=1e-05, momentum=0.1, affine=True, track_running_stats=True)\n    (26): ReLU(inplace=True)\n    (27): Conv2d(512, 512, kernel_size=(3, 3), stride=(1, 1), padding=(1, 1))\n    (28): BatchNorm2d(512, eps=1e-05, momentum=0.1, affine=True, track_running_stats=True)\n    (29): ReLU(inplace=True)\n    (30): Conv2d(512, 512, kernel_size=(3, 3), stride=(1, 1), padding=(1, 1))\n    (31): BatchNorm2d(512, eps=1e-05, momentum=0.1, affine=True, track_running_stats=True)\n    (32): ReLU(inplace=True)\n    (33): MaxPool2d(kernel_size=2, stride=2, padding=0, dilation=1, ceil_mode=False)\n    (34): Conv2d(512, 512, kernel_size=(3, 3), stride=(1, 1), padding=(1, 1))\n    (35): BatchNorm2d(512, eps=1e-05, momentum=0.1, affine=True, track_running_stats=True)\n    (36): ReLU(inplace=True)\n    (37): Conv2d(512, 512, kernel_size=(3, 3), stride=(1, 1), padding=(1, 1))\n    (38): BatchNorm2d(512, eps=1e-05, momentum=0.1, affine=True, track_running_stats=True)\n    (39): ReLU(inplace=True)\n    (40): Conv2d(512, 512, kernel_size=(3, 3), stride=(1, 1), padding=(1, 1))\n    (41): BatchNorm2d(512, eps=1e-05, momentum=0.1, affine=True, track_running_stats=True)\n    (42): ReLU(inplace=True)\n    (43): MaxPool2d(kernel_size=2, stride=2, padding=0, dilation=1, ceil_mode=False)\n  )\n  (avgpool): AdaptiveAvgPool2d(output_size=(7, 7))\n  (classifier): Sequential(\n    (0): Sequential(\n      (0): Linear(in_features=25088, out_features=2048, bias=False)\n      (1): Linear(in_features=2048, out_features=4096, bias=True)\n    )\n    (1): ReLU(inplace=True)\n    (2): Dropout(p=0.5, inplace=False)\n    (3): Sequential(\n      (0): Linear(in_features=4096, out_features=2048, bias=False)\n      (1): Linear(in_features=2048, out_features=4096, bias=True)\n    )\n    (4): ReLU(inplace=True)\n    (5): Dropout(p=0.5, inplace=False)\n    (6): Sequential(\n      (0): Linear(in_features=4096, out_features=1, bias=False)\n      (1): Linear(in_features=1, out_features=2, bias=True)\n    )\n  )\n)\n\n\nWe can see compare the amount of parameters before/after:\n\ncount_parameters(learn.model)\n\n134277186\n\n\n\ncount_parameters(new_model)\n\n91281476\n\n\nThis represents a decrease of ~40M parameters !\nNow this is an approximation, so it isn’t really lossless and we should expect to see a performance drop, which will be bigger as we keep fewer singular values. Here we have:\n\nnew_learn = Learner(dls, new_model, metrics=accuracy)\nnew_learn.validate()\n\n\n\n\n(#2) [0.6868855357170105,0.6853856444358826]",
…
arner(dls, resnet18(num_classes=2), metrics=accuracy)\nlearn.fit_one_cycle(5)\n\n\n\n\nepoch\ntrain_loss\nvalid_loss\naccuracy\ntime\n\n\n\n\n0\n0.615641\n0.596630\n0.688092\n00:10\n\n\n1\n0.582679\n0.558671\n0.689445\n00:10\n\n\n2\n0.529308\n0.517995\n0.744926\n00:10\n\n\n3\n0.481804\n0.449941\n0.784168\n00:10\n\n\n4\n0.400030\n0.414093\n0.800406\n00:10\n\n\n\n\n\n\nFold !\n\n\nbn = BN_Folder()\nnew_model = bn.fold(learn.model)\n\nThe batch norm layers have been replaced by an Identity layer, and the weights of the convolutions have been modified accordingly.\n\nnew_model\n\nResNet(\n  (conv1): Conv2d(3, 64, kernel_size=(7, 7), stride=(2, 2), padding=(3, 3))\n  (bn1): Identity()\n  (relu): ReLU(inplace=True)\n  (maxpool): MaxPool2d(kernel_size=3, stride=2, padding=1, dilation=1, ceil_mode=False)\n  (layer1): Sequential(\n    (0): BasicBlock(\n      (conv1): Conv2d(64, 64, kernel_size=(3, 3), stride=(1, 1), padding=(1, 1))\n      (bn1): Identity()\n      (relu): ReLU(inplace=True)\n      (conv2): Conv2d(64, 64, kernel_size=(3, 3), stride=(1, 1), padding=(1, 1))\n      (bn2): Identity()\n    )\n    (1): BasicBlock(\n      (conv1): Conv2d(64, 64, kernel_size=(3, 3), stride=(1, 1), padding=(1, 1))\n      (bn1): Identity()\n      (relu): ReLU(inplace=True)\n      (conv2): Conv2d(64, 64, kernel_size=(3, 3), stride=(1, 1), padding=(1, 1))\n      (bn2): Identity()\n    )\n  )\n  (layer2): Sequential(\n    (0): BasicBlock(\n      (conv1): Conv2d(64, 128, kernel_size=(3, 3), stride=(2, 2), padding=(1, 1))\n      (bn1): Identity()\n      (relu): ReLU(inplace=True)\n      (conv2): Conv2d(128, 128, kernel_size=(3, 3), stride=(1, 1), padding=(1, 1))\n      (bn2): Identity()\n      (downsample): Sequential(\n        (0): Conv2d(64, 128, kernel_size=(1, 1), stride=(2, 2))\n        (1): Identity()\n      )\n    )\n    (1): BasicBlock(\n      (conv1): Conv2d(128, 128, kernel_size=(3, 3), stride=(1, 1), padding=(1, 1))\n      (bn1): Identity()\n      (relu): ReLU(inplace=True)\n      (conv2): Conv2d(128, 128, kernel_size=(3, 3), stride=(1, 1), padding=(1, 1))\n      (bn2): Identity()\n    )\n  )\n  (layer3): Sequential(\n    (0): BasicBlock(\n      (conv1): Conv2d(128, 256, kernel_size=(3, 3), stride=(2, 2), padding=(1, 1))\n      (bn1): Identity()\n      (relu): ReLU(inplace=True)\n      (conv2): Conv2d(256, 256, kernel_size=(3, 3), stride=(1, 1), padding=(1, 1))\n      (bn2): Identity()\n      (downsample): Sequential(\n        (0): Conv2d(128, 256, kernel_size=(1, 1), stride=(2, 2))\n        (1): Identity()\n      )\n    )\n    (1): BasicBlock(\n      (conv1): Conv2d(256, 256, kernel_size=(3, 3), stride=(1, 1), padding=(1, 1))\n      (bn1): Identity()\n      (relu): ReLU(inplace=True)\n      (conv2): Conv2d(256, 256, kernel_size=(3, 3), stride=(1, 1), padding=(1, 1))\n      (bn2): Identity()\n    )\n  )\n  (layer4): Sequential(\n    (0): BasicBlock(\n      (conv1): Conv2d(256, 512, kernel_size=(3, 3), stride=(2, 2), padding=(1, 1))\n      (bn1): Identity()\n      (relu): ReLU(inplace=True)\n      (conv2): Conv2d(512, 512, kernel_size=(3, 3), stride=(1, 1), padding=(1, 1))\n      (bn2): Identity()\n      (downsample): Sequential(\n        (0): Conv2d(256, 512, kernel_size=(1, 1), stride=(2, 2))\n        (1): Identity()\n      )\n    )\n    (1): BasicBlock(\n      (conv1): Conv2d(512, 512, kernel_size=(3, 3), stride=(1, 1), padding=(1, 1))\n      (bn1): Identity()\n      (relu): ReLU(inplace=True)\n      (conv2): Conv2d(512, 512, kernel_size=(3, 3), stride=(1, 1), padding=(1, 1))\n      (bn2): Identity()\n    )\n  )\n  (avgpool): AdaptiveAvgPool2d(output_size=(1, 1))\n  (fc): Linear(in_features=512, out_features=2, bias=True)\n)\n\n\nWe can see that the new model possess fewer parameters\n\ncount_parameters(learn.model)\n\n11177538\n\n\n\ncount_parameters(new_model)\n\n11172738\n\n\nBut is also faster to run !\n\nx,y = dls.one_batch()\n\n\nlearn.model(x[0][None].cuda())\n\n5.59 ms ± 547 µs per loop (mean ± std. dev. of 7 runs, 100 loops each)\n\n\n\nnew_model(x[0][None].cuda())\n\n4.14 ms ± 446 µs per loop (mean ± std. dev. of 7 runs, 100 loops each)\n\n\nBut most importantly, has the exact same perfomance as before:\n\nnew_learn = Learner(dls, new_model, metrics=accuracy)\n\n\nnew_learn.validate()\n\n\n\n\n(#2) [0.4140927791595459,0.8004059791564941]",
…
ghter and faster without a significant compromise on performance. This approach not only simplifies the compression process but also opens up new avenues for creating efficient AI models optimized for various deployment scenarios.",
    "crumbs": [
      "Get Started",
      "Quick Start"
    ]
  },
  {
    "objectID": "prune.pruner.html",
    "href": "prune.pruner.html",
    "title": "Pruner",
    "section": "",
    "text": "source\n\nPruner.prune_model\n\n Pruner.prune_model (sparsity, round_to=None)\n\nLet’s try the Pruner with a VGG16 model\n\nmodel = resnet18(); model\n\nResNet(\n  (conv1): Conv2d(3, 64, kernel_size=(7, 7), stride=(2, 2), padding=(3, 3), bias=False)\n  (bn1): BatchNorm2d(64, eps=1e-05, momentum=0.1, affine=True, track_running_stats=True)\n  (relu): ReLU(inplace=True)\n  (maxpool): MaxPool2d(kernel_size=3, stride=2, padding=1, dilation=1, ceil_mode=False)\n  (layer1): Sequential(\n    (0): BasicBlock(\n      (conv1): Conv2d(64, 64, kernel_size=(3, 3), stride=(1, 1), padding=(1, 1), bias=False)\n      (bn1): BatchNorm2d(64, eps=1e-05, momentum=0.1, affine=True, track_running_stats=True)\n      (relu): ReLU(inplace=True)\n      (conv2): Conv2d(64, 64, kernel_size=(3, 3), stride=(1, 1), padding=(1, 1), bias=False)\n      (bn2): BatchNorm2d(64, eps=1e-05, momentum=0.1, affine=True, track_running_stats=True)\n    )\n    (1): BasicBlock(\n      (conv1): Conv2d(64, 64, kernel_size=(3, 3), stride=(1, 1), padding=(1, 1), bias=False)\n      (bn1): BatchNorm2d(64, eps=1e-05, momentum=0.1, affine=True, track_running_stats=True)\n      (relu): ReLU(inplace=True)\n      (conv2): Conv2d(64, 64, kernel_size=(3, 3), stride=(1, 1), padding=(1, 1), bias=False)\n      (bn2): BatchNorm2d(64, eps=1e-05, momentum=0.1, affine=True, track_running_stats=True)\n    )\n  )\n  (layer2): Sequential(\n    (0): BasicBlock(\n      (conv1): Conv2d(64, 128, kernel_size=(3, 3), stride=(2, 2), padding=(1, 1), bias=False)\n      (bn1): BatchNorm2d(128, eps=1e-05, momentum=0.1, affine=True, track_running_stats=True)\n      (relu): ReLU(inplace=True)\n      (conv2): Conv2d(128, 128, kernel_size=(3, 3), stride=(1, 1), padding=(1, 1), bias=False)\n      (bn2): BatchNorm2d(128, eps=1e-05, momentum=0.1, affine=True, track_running_stats=True)\n      (downsample): Sequential(\n        (0): Conv2d(64, 128, kernel_size=(1, 1), stride=(2, 2), bias=False)\n        (1): BatchNorm2d(128, eps=1e-05, momentum=0.1, affine=True, track_running_stats=True)\n      )\n    )\n    (1): BasicBlock(\n      (conv1): Conv2d(128, 128, kernel_size=(3, 3), stride=(1, 1), padding=(1, 1), bias=False)\n      (bn1): BatchNorm2d(128, eps=1e-05, momentum=0.1, affine=True, track_running_stats=True)\n      (relu): ReLU(inplace=True)\n      (conv2): Conv2d(128, 128, kernel_size=(3, 3), stride=(1, 1), padding=(1, 1), bias=False)\n      (bn2): BatchNorm2d(128, eps=1e-05, momentum=0.1, affine=True, track_running_stats=True)\n    )\n  )\n  (layer3): Sequential(\n    (0): BasicBlock(\n      (conv1): Conv2d(128, 256, kernel_size=(3, 3), stride=(2, 2), padding=(1, 1), bias=False)\n      (bn1): BatchNorm2d(256, eps=1e-05, momentum=0.1, affine=True, track_running_stats=True)\n      (relu): ReLU(inplace=True)\n      (conv2): Conv2d(256, 256, kernel_size=(3, 3), stride=(1, 1), padding=(1, 1), bias=False)\n      (bn2): BatchNorm2d(256, eps=1e-05, momentum=0.1, affine=True, track_running_stats=True)\n      (downsample): Sequential(\n        (0): Conv2d(128, 256, kernel_size=(1, 1), stride=(2, 2), bias=False)\n        (1): BatchNorm2d(256, eps=1e-05, momentum=0.1, affine=True, track_running_stats=True)\n      )\n    )\n    (1): BasicBlock(\n      (conv1): Conv2d(256, 256, kernel_size=(3, 3), stride=(1, 1), padding=(1, 1), bias=False)\n      (bn1): BatchNorm2d(256, eps=1e-05, momentum=0.1, affine=True, track_running_stats=True)\n      (relu): ReLU(inplace=True)\n      (conv2): Conv2d(256, 256, kernel_size=(3, 3), stride=(1, 1), padding=(1, 1), bias=False)\n      (bn2): BatchNorm2d(256, eps=1e-05, momentum=0.1, affine=True, track_running_stats=True)\n    )\n  )\n  (layer4): Sequential(\n    (0): BasicBlock(\n      (conv1): Conv2d(256, 512, kernel_size=(3, 3), stride=(2, 2), padding=(1, 1), bias=False)\n      (bn1): BatchNorm2d(512, eps=1e-05, momentum=0.1, affine=True, track_running_stats=True)\n      (relu): ReLU(inplace=True)\n      (conv2): Conv2d(512, 512, kernel_size=(3, 3), stride=(1, 1), padding=(1, 1), bias=False)\n      (bn2): BatchNorm2d(512, eps=1e-05, momentum=0.1, affine=True, track_running_stats=True)\n      (downsample): Sequential(\n        (0): Conv2d(256, 512, kernel_size=(1, 1), stride=(2, 2), bias=False)\n        (1): BatchNorm2d(512, eps=1e-05, momentum=0.1, affine=True, track_running_stats=True)\n      )\n    )\n    (1): BasicBlock(\n      (conv1): Conv2d(512, 512, kernel_size=(3, 3), stride=(1, 1), padding=(1, 1), bias=False)\n      (bn1): BatchNorm2d(512, eps=1e-05, momentum=0.1, affine=True, track_running_stats=True)\n      (relu): ReLU(inplace=True)\n      (conv2): Conv2d(512, 512, kernel_size=(3, 3), stride=(1, 1), padding=(1, 1), bias=False)\n      (bn2): BatchNorm2d(512, eps=1e-05, momentum=0.1, affine=True, track_running_stats=True)\n    )\n  )\n  (avgpool): AdaptiveAvgPool2d(output_size=(1, 1))\n  (fc): Linear(in_features=512, out_features=1000, bias=True)\n)\n\n\nThe Prunercan either remove filters based on local criteria (i.e. each layer will be trimmed of the same % of filters)\n\npruner = Pruner(model, 'local', large_final, layer_type=[nn.Conv2d])\npruner.prune_model(30)\nprint(model)\n\nResNet(\n  (conv1): Conv2d(3, 44, kernel_size=(7, 7), stride=(2, 2), padding=(3, 3), bias=False)\n  (bn1): BatchNorm2d(44, eps=1e-05, momentum=0.1, affine=True, track_running_stats=True)\n  (relu): ReLU(inplace=True)\n  (maxpool): MaxPool2d(kernel_size=3, stride=2, padding=1, dilation=1, ceil_mode=False)\n  (layer1): Sequential(\n    (0): BasicBlock(\n      (conv1): Conv2d(44, 44, kernel_size=(3, 3), stride=(1, 1), padding=(1, 1), bias=False)\n      (bn1): BatchNorm2d(44, eps=1e-05, momentum=0.1, affine=True, track_running_stats=True)\n      (relu): ReLU(inplace=True)\n      (conv2): Conv2d(44, 44, kernel_size=(3, 3), stride=(1, 1), padding=(1, 1), bias=False)\n      (bn2): BatchNorm2d(44, eps=1e-05, momentum=0.1, affine=True, track_running_stats=True)\n    )\n    (1): BasicBlock(\n      (conv1): Conv2d(44, 44, kernel_size=(3, 3), stride=(1, 1), padding=(1, 1), bias=False)\n      (bn1): BatchNorm2d(44, eps=1e-05, momentum=0.1, affine=True, track_running_stats=True)\n      (relu): ReLU(inplace=True)\n      (conv2): Conv2d(44, 44, kernel_size=(3, 3), stride=(1, 1), padding=(1, 1), bias=False)\n      (bn2): BatchNorm2d(44, eps=1e-05, momentum=0.1, affine=True, track_running_stats=True)\n    )\n  )\n  (layer2): Sequential(\n    (0): BasicBlock(\n      (conv1): Conv2d(44, 89, kernel_size=(3, 3), stride=(2, 2), padding=(1, 1), bias=False)\n      (bn1): BatchNorm2d(89, eps=1e-05, momentum=0.1, affine=True, track_running_stats=True)\n      (relu): ReLU(inplace=True)\n      (conv2): Conv2d(89, 89, kernel_size=(3, 3), stride=(1, 1), padding=(1, 1), bias=False)\n      (bn2): BatchNorm2d(89, eps=1e-05, momentum=0.1, affine=True, track_running_stats=True)\n      (downsample): Sequential(\n        (0): Conv2d(44, 89, kernel_size=(1, 1), stride=(2, 2), bias=False)\n        (1): BatchNorm2d(89, eps=1e-05, momentum=0.1, affine=True, track_running_stats=True)\n      )\n    )\n    (1): BasicBlock(\n      (conv1): Conv2d(89, 89, kernel_size=(3, 3), stride=(1, 1), padding=(1, 1), bias=False)\n      (bn1): BatchNorm2d(89, eps=1e-05, momentum=0.1, affine=True, track_running_stats=True)\n      (relu): ReLU(inplace=True)\n      (conv2): Conv2d(89, 89, kernel_size=(3, 3), stride=(1, 1), padding=(1, 1), bias=False)\n      (bn2): BatchNorm2d(89, eps=1e-05, momentum=0.1, affine=True, track_running_stats=True)\n    )\n  )\n  (layer3): Sequential(\n    (0): BasicBlock(\n      (conv1): Conv2d(89, 179, kernel_size=(3, 3), stride=(2, 2), padding=(1, 1), bias=False)\n      (bn1): BatchNorm2d(179, eps=1e-05, momentum=0.1, affine=True, track_running_stats=True)\n      (relu): ReLU(inplace=True)\n      (conv2): Conv2d(179, 179, kernel_size=(3, 3), stride=(1, 1), padding=(1, 1), bias=False)\n      (bn2): BatchNorm2d(179, eps=1e-05, momentum=0.1, affine=True, track_running_stats=True)\n      (downsample): Sequential(\n        (0): Conv2d(89, 179, kernel_size=(1, 1), stride=(2, 2), bias=False)\n        (1): BatchNorm2d(179, eps=1e-05, momentum=0.1, affine=True, track_running_stats=True)\n      )\n    )\n    (1): BasicBlock(\n      (conv1): Conv2d(179, 179, kernel_size=(3, 3), stride=(1, 1), padding=(1, 1), bias=False)\n      (bn1): BatchNorm2d(179, eps=1e-05, momentum=0.1, affine=True, track_running_stats=True)\n      (relu): ReLU(inplace=True)\n      (conv2): Conv2d(179, 179, kernel_size=(3, 3), stride=(1, 1), padding=(1, 1), bias=False)\n      (bn2): BatchNorm2d(179, eps=1e-05, momentum=0.1, affine=True, track_running_stats=True)\n    )\n  )\n  (layer4): Sequential(\n    (0): BasicBlock(\n      (conv1): Conv2d(179, 358, kernel_size=(3, 3), stride=(2, 2), padding=(1, 1), bias=False)\n      (bn1): BatchNorm2d(358, eps=1e-05, momentum=0.1, affine=True, track_running_stats=True)\n      (relu): ReLU(inplace=True)\n      (conv2): Conv2d(358, 358, kernel_size=(3, 3), stride=(1, 1), padding=(1, 1), bias=False)\n      (bn2): BatchNorm2d(358, eps=1e-05, momentum=0.1, affine=True, track_running_stats=True)\n      (downsample): Sequential(\n        (0): Conv2d(179, 358, kernel_size=(1, 1), stride=(2, 2), bias=False)\n        (1): BatchNorm2d(358, eps=1e-05, momentum=0.1, affine=True, track_running_stats=True)\n      )\n    )\n    (1): BasicBlock(\n      (conv1): Conv2d(358, 358, kernel_size=(3, 3), stride=(1, 1), padding=(1, 1), bias=False)\n      (bn1): BatchNorm2d(358, eps=1e-05, momentum=0.1, affine=True, track_running_stats=True)\n      (relu): ReLU(inplace=True)\n      (conv2): Conv2d(358, 358, kernel_size=(3, 3), stride=(1, 1), padding=(1, 1), bias=False)\n      (bn2): BatchNorm2d(358, eps=1e-05, momentum=0.1, affine=True, track_running_stats=True)\n    )\n  )\n  (avgpool): AdaptiveAvgPool2d(output_size=(1, 1))\n  (fc): Linear(in_features=358, out_features=1000, bias=True)\n)\n\n\nThe Prunercan also remove filters based on global criteria (i.e. each layer will be trimmed of a different % of filters, but we specify the sparsity of the whole network)\n\nmodel = resnet18()\npruner = Pruner(model, 'global', large_final, layer_type=[nn.Conv2d])\npruner.prune_model(50)\nprint(model)\n\nResNet(\n  (conv1): Conv2d(3, 64, kernel_size=(7, 7), stride=(2, 2), padding=(3, 3), bias=False)\n  (bn1): BatchNorm2d(64, eps=1e-05, momentum=0.1, affine=True, track_running_stats=True)\n  (relu): ReLU(inplace=True)\n  (maxpool): MaxPool2d(kernel_size=3, stride=2, padding=1, dilation=1, ceil_mode=False)\n  (layer1): Sequential(\n    (0): BasicBlock(\n      (conv1): Conv2d(64, 64, kernel_size=(3, 3), stride=(1, 1), padding=(1, 1), bias=False)\n      (bn1): BatchNorm2d(64, eps=1e-05, momentum=0.1, affine=True, track_running_stats=True)\n      (relu): ReLU(inplace=True)\n      (conv2): Conv2d(64, 64, kernel_size=(3, 3), stride=(1, 1), padding=(1, 1), bias=False)\n      (bn2): BatchNorm2d(64, eps=1e-05, momentum=0.1, affine=True, track_running_stats=True)\n    )\n    (1): BasicBlock(\n      (conv1): Conv2d(64, 64, kernel_size=(3, 3), stride=(1, 1), padding=(1, 1), bias=False)\n      (bn1): BatchNorm2d(64, eps=1e-05, momentum=0.1, affine=True, track_running_stats=True)\n      (relu): ReLU(inplace=True)\n      (conv2): Conv2d(64, 64, kernel_size=(3, 3), stride=(1, 1), padding=(1, 1), bias=False)\n      (bn2): BatchNorm2d(64, eps=1e-05, momentum=0.1, affine=True, track_running_stats=True)\n    )\n  )\n  (layer2): Sequential(\n    (0): BasicBlock(\n      (conv1): Conv2d(64, 128, kernel_size=(3, 3), stride=(2, 2), padding=(1, 1), bias=False)\n      (bn1): BatchNorm2d(128, eps=1e-05, momentum=0.1, affine=True, track_running_stats=True)\n      (relu): ReLU(inplace=True)\n      (conv2): Conv2d(128, 128, kernel_size=(3, 3), stride=(1, 1), padding=(1, 1), bias=False)\n      (bn2): BatchNorm2d(128, eps=1e-05, momentum=0.1, affine=True, track_running_stats=True)\n      (downsample): Sequential(\n        (0): Conv2d(64, 128, kernel_size=(1, 1), stride=(2, 2), bias=False)\n        (1): BatchNorm2d(128, eps=1e-05, momentum=0.1, affine=True, track_running_stats=True)\n      )\n    )\n    (1): BasicBlock(\n      (conv1): Conv2d(128, 128, kernel_size=(3, 3), stride=(1, 1), padding=(1, 1), bias=False)\n      (bn1): BatchNorm2d(128, eps=1e-05, momentum=0.1, affine=True, track_running_stats=True)\n      (relu): ReLU(inplace=True)\n      (conv2): Conv2d(128, 128, kernel_size=(3, 3), stride=(1, 1), padding=(1, 1), bias=False)\n      (bn2): BatchNorm2d(128, eps=1e-05, momentum=0.1, affine=True, track_running_stats=True)\n    )\n  )\n  (layer3): Sequential(\n    (0): BasicBlock(\n      (conv1): Conv2d(128, 64, kernel_size=(3, 3), stride=(2, 2), padding=(1, 1), bias=False)\n      (bn1): BatchNorm2d(64, eps=1e-05, momentum=0.1, affine=True, track_running_stats=True)\n      (relu): ReLU(inplace=True)\n      (conv2): Conv2d(64, 256, kernel_size=(3, 3), stride=(1, 1), padding=(1, 1), bias=False)\n      (bn2): BatchNorm2d(256, eps=1e-05, momentum=0.1, affine=True, track_running_stats=True)\n      (downsample): Sequential(\n        (0): Conv2d(128, 256, kernel_size=(1, 1), stride=(2, 2), bias=False)\n        (1): BatchNorm2d(256, eps=1e-05, momentum=0.1, affine=True, track_running_stats=True)\n      )\n    )\n    (1): BasicBlock(\n      (conv1): Conv2d(256, 42, kernel_size=(3, 3), stride=(1, 1), padding=(1, 1), bias=False)\n      (bn1): BatchNorm2d(42, eps=1e-05, momentum=0.1, affine=True, track_running_stats=True)\n      (relu): ReLU(inplace=True)\n      (conv2): Conv2d(42, 256, kernel_size=(3, 3), stride=(1, 1), padding=(1, 1), bias=False)\n      (bn2): BatchNorm2d(256, eps=1e-05, momentum=0.1, affine=True, track_running_stats=True)\n    )\n  )\n  (layer4): Sequential(\n    (0): BasicBlock(\n      (conv1): Conv2d(256, 1, kernel_size=(3, 3), stride=(2, 2), padding=(1, 1), bias=False)\n      (bn1): BatchNorm2d(1, eps=1e-05, momentum=0.1, affine=True, track_running_stats=True)\n      (relu): ReLU(inplace=True)\n      (conv2): Conv2d(1, 502, kernel_size=(3, 3), stride=(1, 1), padding=(1, 1), bias=False)\n      (bn2): BatchNorm2d(502, eps=1e-05, momentum=0.1, affine=True, track_running_stats=True)\n      (downsample): Sequential(\n        (0): Conv2d(256, 502, kernel_size=(1, 1), stride=(2, 2), bias=False)\n        (1): BatchNorm2d(502, eps=1e-05, momentum=0.1, affine=True, track_running_stats=True)\n      )\n    )\n    (1): BasicBlock(\n      (conv1): Conv2d(502, 1, kernel_size=(3, 3), stride=(1, 1), padding=(1, 1), bias=False)\n      (bn1): BatchNorm2d(1, eps=1e-05, momentum=0.1, affine=True, track_running_stats=True)\n      (relu): ReLU(inplace=True)\n      (conv2): Conv2d(1, 502, kernel_size=(3, 3), stride=(1, 1), padding=(1, 1), bias=False)\n      (bn2): BatchNorm2d(502, eps=1e-05, momentum=0.1, affine=True, track_running_stats=True)\n    )\n  )\n  (avgpool): AdaptiveAvgPool2d(output_size=(1, 1))\n  (fc): Linear(in_features=502, out_features=1000, bias=True)\n)",
    "crumbs": [
      "Get Started",
      "Prune",
      "Pruner"
    ]
  },
  {
    "objectID": "quantize.quantizer.html",
    "href": "quantize.quantizer.html",
    "title": "Quantizer",
    "section": "",
    "text": "source\n\nQuantizer\n\n Quantizer (activation_observer=&lt;class\n            'torch.ao.quantization.observer.MinMaxObserver'&gt;,\n            weight_observer=&lt;class\n            'torch.ao.quantization.observer.MinMaxObserver'&gt;,\n            activation_qtype=torch.qint8, weight_qtype=torch.quint8,\n            granularity='tensor')\n\nInitialize self. See help(type(self)) for accurate signature.",
…
